Handwritten Digit Recognition/checkpoint/mnist.pt (torch, 575507 bytes, 12 tensors)

conv1A.weight f4 [16, 1, 5, 5]
00000000: 7d5d c1bc dabe 5dbd 085b 99be 5827 1e3e
00000010: 1306 993d 706d 7bbe 510b 873c 87c4 c63e
00000020: ed0d c73e 2a11 87be 37a7 583e 8752 e43e
00000030: ca5b 123f 4e8b 683e b0d8 1cbe 0d1d fb3c
00000040: 4599 bd3d e18f f4bd 5650 2fbe 1b43 8bbb
00000050: 76f0 adbe d148 c3be fbb3 7dbe 8974 0d3e
00000060: 1415 cdbc 1ca4 b13d a05b d23c 7195 a6be
00000070: 2af2 05be f81a 9abd 74d8 cfbd 50f3 dfbe
00000080: 98e4 08be 4ae4 eabd eaba 8dbc f6e1 11be
00000090: 8ae3 873e a03d 343f 26ad ac3e 8b3e cbbd
000000a0: 548a 88bd c781 123e 24fa d73e 2f0f bb3e
000000b0: a38b 67bd 0537 72be 7fd9 593b 6181 09be
000000c0: 6e72 383d 84a5 5cbc 6624 bebe 025d 3fbd
000000d0: c8cb 0b3d aa84 713e 694a 2a3d f22c 6abe
000000e0: d6e9 f93c b00e 4c3e becb e33d 24f5 b1be
000000f0: 4d14 0abd be24 a73d c8c0 8a3e 0117 92be
00000100: d03b 83be e0a6 2a3e 13ce da3e 5fac abbd
00000110: 2616 9ebe 389b 93be 0e00 863e e751 f93d
00000120: 50e0 f83d 89ef 8ebe 24e1 87be 7160 84be
00000130: d92a 9abe c91c c13c 259a 163e 769c 9a3e
00000140: 27c2 a7be 13df 88be 6d5e 3f3e ad8b cd3d
00000150: babf 8d3e e60e 9bbe 986e 3c3d 8935 c5ba
00000160: 067e a73c a633 a13d 26f9 e7bd e181 cebc
00000170: 46f2 453e 0427 1a3e 3246 1fbe 668b 32be
00000180: 2bac 263e 496e c3bd 3cf4 e9bd 5fdb 62be
00000190: 8b9d eabd ede6 4c3d 4e52 d8bc 92d6 14be
000001a0: c495 8d3b a594 0cbe 7fe7 2ebe 11f6 e1bd
000001b0: b15b 33be de5d 02be c13d 483e a508 013d
000001c0: 7d91 693d 62f1 3fbe 2f5f 06be f6b9 8bbd
000001d0: 76f8 fb3c dbd7 34be e9b3 b0bd d629 f5bd
000001e0: 0fbd 9db9 05b9 9cbd a0a3 60bc 5cd0 0abe
000001f0: 80a6 0cbe b74d debd 9211 47bd 0443 09be
00000200: 72da 4d3e b906 27bc 6f0f 2b3e 4edf 833d
00000210: 9410 2abe 1911 183e e320 07bd 5bca c8bd
00000220: 23ad 42be 9e29 6cbe 083c 093d 1d1d 68bd
00000230: 8f2f d23d 457e ebbd e33f 253e 2295 18be
00000240: 2496 f3bc bd72 ad3d 30f4 1a3e d6b4 3d3e
00000250: 6203 533e a380 10be fd95 393d df94 c1bd
00000260: 5165 09bd 8679 1fbe 96d0 3d3e b5b0 1bbe
00000270: 2720 aa3d f44c 443d 6683 613d 62a0 d7bd
00000280: 1180 373e b935 093d 9b1b 913c 8e12 46be
00000290: 8fba 9c3d 544c 0fbd 3515 c1bd 771e 403e
000002a0: 0bd2 1f3d 2532 f7bd fd5a e9bd f913 c0b9
000002b0: 10d6 0a3e 367b 59bd 307c e4bd 23e9 e1bd
000002c0: 466e 38be 34f6 703d 8241 803d 47f8 81be
000002d0: 8698 823d c3de 2d3e 0803 353c f3fb abbe
000002e0: 9ea2 d0bd cb4f 9d3d a58f 483e 5104 153e
000002f0: bea3 b8bd c653 a5bd 1567 cabd b71c aebc
00000300: c90a b13e 3d0a a43e 49c5 0abd fc69 6dbd
00000310: dbf5 033d c4c8 b8bc 4ea0 503d 54c0 613d
00000320: 03c3 63be 5066 d4bd 3bad 1a3e 1d49 093e
00000330: 1a36 a83d 491f 19be 10e1 61be 5334 69be
00000340: 5925 1abd 12f7 fd3d 522e 373e 2a34 683d
00000350: 41e1 77be ff0e 37be fbd0 8bbd 0ce4 933e
00000360: 308a fe3d 1b86 5dbd 832f ac3c 1858 f8bd
00000370: 951f ecbd f204 6d3e d4ff 12bd 0825 abbc
00000380: 6d06 35be 31ef 113e 0c60 613e 6441 393e
00000390: c08f 823d 7f9a bcbc 85a3 b6bd f38f 723e
000003a0: 45e0 153e 361d 4f3e 7a07 473c b161 943d
000003b0: 04ef bbbb 70cf 7cbe 0e3c acbe 3167 c4be
000003c0: 9181 33bd bd5c 87be 633b 90be 8264 a7be
000003d0: 3a43 18be 93d3 a7be 6de5 adbe dbad f7bd
000003e0: 4e86 0cbe 2e75 1e3e 4055 9cbc 9860 67be
000003f0: 691e 52be dbe5 9abe 58aa 27be 9d10 7bbe
-0.023604149 -0.05413709 -0.29952264 0.15444696 0.07471862 -0.24553466 0.016484888 0.38821813
0.38877812 -0.26380283 0.21157537 0.44594213 0.5717131 0.2270939 -0.15317035 0.0306535
0.092577495 -0.11941505 -0.1712049 -0.004249943 -0.3397252 -0.38141492 -0.24775688 0.13813986
-0.025034465 0.086738795 0.025678456 -0.3253589 -0.1308066 -0.07524675 -0.10148707 -0.4374032
-0.13368452 -0.11469324 -0.017301042 -0.14246354 0.26540786 0.7040653 0.33725852 -0.099240385
-0.06667009 0.14307319 0.4218303 0.36535022 -0.056529652 -0.23653801 0.003324121 -0.1342826
0.045031004 -0.013467196 -0.37137145 -0.04671956 0.034129888 0.23585764 0.04157487 -0.22868708
0.03050701 0.19927478 0.11122845 -0.3475734 -0.033710767 0.08161305 0.27100205 -0.28533176
-0.2563157 0.1666522 0.42735347 -0.083824866 -0.30876273 -0.2882936 0.26171917 0.12173825
0.12152159 -0.27917126 -0.26538956 -0.2585483 -0.30110815 0.023573296 0.14707239 0.30197495
-0.32765314 -0.26732692 0.18688364 0.10036407 0.27685338 -0.30284804 0.046003908 -0.0015045862
0.020445835 0.07871179 -0.11326818 -0.025208415 0.19330701 0.15053946 -0.15554121 -0.17435989
0.16276614 -0.095425196 -0.11423537 -0.22153996 -0.1145583 0.050024915 -0.026406433 -0.14534977
0.004320832 -0.13728578 -0.17080496 -0.110332616 -0.17515446 -0.1273112 0.19554807 0.031502385
0.057023514 -0.18744424 -0.13122247 -0.068225786 0.030758124 -0.17660467 -0.08628065 -0.1197087
-0.00030086233 -0.07652477 -0.013710886 -0.13556045 -0.1373539 -0.10854667 -0.04860074 -0.1340447
0.20102862 -0.010194474 0.16705106 0.06439076 -0.16607887 0.14850272 -0.032990348 -0.09804221
-0.19011359 -0.2306275 0.033504516 -0.05666839 0.10262977 -0.114986934 0.16137652 -0.1490064
-0.029734679 0.0846915 0.15132213 0.18526015 0.20606759 -0.14111571 0.045309056 -0.09452223
-0.03354389 -0.15573701 0.185366 -0.15204127 0.08306914 0.04792495 0.055056952 -0.105286375
0.17919947 0.0334985 0.017713359 -0.19343016 0.07652771 -0.0349849 -0.09427873 0.18761621
0.039018672 -0.12070111 -0.11394308 -0.00036635975 0.13558221 -0.05309602 -0.111564994 -0.110307954
-0.18010816 0.058828548 0.062624946 -0.25384733 0.06376748 0.16979508 0.011048086 -0.3359066
-0.10187267 0.07681235 0.19586046 0.14552428 -0.09015606 -0.08072619 -0.098829426 -0.021253927
0.3457854 0.3203906 -0.033879552 -0.057962403 0.032216888 -0.02255667 0.05093413 0.05511506
-0.2224236 -0.10371077 0.15105145 0.13406797 0.08213444 -0.1495334 -0.22058511 -0.22773866
-0.037633274 0.124006405 0.17888764 0.056690373 -0.24207021 -0.17876814 -0.06826969 0.28884923
0.12428701 -0.05408297 0.02101875 -0.121261775 -0.11529461 0.23146418 -0.035888508 -0.020891681
-0.17678232 0.142514 0.22009295 0.18091351 0.063750744 -0.023022888 -0.089179076 0.23687725
0.14636333 0.20225987 0.012147779 0.07245196 -0.00573528 -0.24688506 -0.33639568 -0.3835998
-0.043824736 -0.2643794 -0.28170308 -0.3269387 -0.14869395 -0.32778606 -0.339641 -0.12093707
-0.13723108 0.15474388 -0.01908362 -0.22595441 -0.20519413 -0.3025349 -0.16373575 -0.24518056

conv1A.bias f4 [16]
00000000: daf5 b4bb 2883 5a3c 8b64 37be d686 46be
00000010: f74c 63bd 9250 09be addc 33be 2605 80bc
00000020: 7d7c 96bc 715e 0d3e 03f2 6e3c ed0c a7bd
00000030: 7828 45bd 6f07 173e 5712 1a3e c11a 60bd
-0.005522472 0.013336934 -0.17909448 -0.19387373 -0.05549332 -0.13409641 -0.1756465 -0.015627455
-0.018369908 0.13805558 0.014584067 -0.08156762 -0.048134297 0.1474893 0.15046059 -0.054713015

conv1B.weight f4 [32, 16, 5, 5]
00000000: ca79 d2bd 6e77 15bd fa49 06bd 8bc1 1d3c
00000010: 504d 6d3d afa9 d9bd d099 e4bd 3571 a43c
00000020: 3870 8f3d bb58 053d d2cb 7cbd 9bf2 cbbd
00000030: 3691 bfbc 0548 c73d 6087 093e 5174 cabd
00000040: 7db5 ffbd 81e3 023d 33f6 a43d d103 363e
00000050: e129 19be 181a fabd b2b3 8fbd a44e 423d
00000060: 507f 5e3d 0cd8 f8bd c2b1 e2bd 3a47 f13c
00000070: 1efc ba3d 9a60 f63c c35e 37be 7bf8 9cbd
00000080: 154a 9d3c 434e 8f3c faea 553d 3d94 44be
00000090: 3a1a 30be 9cae 20bc 08f1 e13d 22b6 d13d
000000a0: 5125 2abe 2758 e3bd 40d0 90bd c185 2e3d
000000b0: d6cc 9e3d 388a ffbd 1ba6 3dbe 110d 53be
000000c0: 755c 423d 2edc 333d 943b cbbd 1053 7cbd
000000d0: feb3 d73c 6c10 743d ae18 4f3d cb2f d8bc
000000e0: a4cc 06ba 01d1 2cbd b150 8fbc 7208 403d
000000f0: b63c bcbd e738 bbbd e88c 8dbd 1a6b 053c
00000100: a107 b63d 3bf1 babd 90fd aebd 517b 87bd
00000110: 1167 86bd d648 843c 9780 dbbc e606 8dbd
00000120: 455f 31bd 1670 1ebd 0e2f 7e3c 660b 40bd
00000130: d880 83bc 0c06 7ebc 93a1 3abb a772 52bc
00000140: 6abb c6bc 302f b73b 464e 0fbd 5e35 8dbc
00000150: 3f64 a3bb b719 82bd 525a 22bd 9e80 7aba
00000160: 3f0b 343d 93c4 883d 2a94 92bd 2b95 53bd
00000170: 9827 03bd 873c d3bc 1971 b1bb cd8a adbd
00000180: e3a2 64bb c21f 9abd 6a73 72bd b120 94bd
00000190: 934f 333d 6316 41bd fbdd 1a3d 8c0a d7ba
000001a0: ef3c ccbb 8e61 ff3c b79d 98bb 2c7c 003d
000001b0: 5f43 143d 36fa 31bd d0b6 9e3c 192d 1a3c
000001c0: bb21 303c 961a ef3b a880 603c 89ff c5bc
000001d0: 2d54 d1bb b295 423d b597 093d 9f9b f6ba
000001e0: c20a 40bd 2990 103b ad70 0bbd 5990 263d
000001f0: 8eb1 f8bc d2fd bfbb c4d1 96bc bea8 8bbb
00000200: 9d7c da3c 0b4f 4dbb 96d4 e53c ab23 093d
00000210: be15 103d 6e79 bbbc a375 a5bc b782 ca3c
00000220: 97c5 8bbc 83f5 883c 4b54 d1bb 9eb6 22bd
00000230: dbc8 c13c deee de3b fe29 393c 86ce 523d
00000240: b54e df3c 57c4 a23d 541f a83c 533d 10bd
00000250: 5b05 cebc 5a70 31bd 1357 38bd f63c c8bc
00000260: aeda 31bd 30ba 11bd fde1 a9bc 0a46 48bd
00000270: aa62 fdbc c085 a83c 0862 2b3d 1368 81bc
00000280: b9f5 67bc 3270 dc3c 1c4a c6bc e254 a3bc
00000290: 0b8f 223d 9439 32bd 528e b43b 6d5e 313d
000002a0: 81a9 2e3c 6fb8 6c3c 703e fbbc 60ff 5aba
000002b0: 56f8 513a d1e1 3c3c 8900 a83c 2b2a c4bc
000002c0: e3f7 d3bd 2048 27bd 8c80 e8bc 69ea 1dbc
000002d0: d085 5fbd e340 c1bd 0635 613c 88a7 cc3c
000002e0: d5e8 c1bc 5476 5cbc 0203 b2bd b88c f4bc
000002f0: 0ae8 153c bb51 babc 6f65 9bbd 7324 4ebd
00000300: e8d8 443c e0ce 943d 6f28 aa3d 70a0 9dbd
00000310: f4ce b3bd ceb5 243c 13a9 3e3d 1d68 893d
00000320: 68dd 643b 5ec4 3cbd 7ee1 05bd b415 a03c
00000330: 1286 29bd 7560 223a f9bd 3abd 7c46 05bd
00000340: 0b57 8fbc 5993 51bd 6bd6 e9bb 5900 343c
00000350: 06ca 60bd 6a3f 163c 7586 27bd 5f10 debc
00000360: 4607 5a3c 5f46 043d 3156 a1bc 3a21 aabc
00000370: 71ce 29bd 5a58 93bc d652 22bd 420a 8dbc
00000380: 1d19 183a 9af8 0bbd d094 4f3d 4eca 893c
00000390: d45b c0bd 1fb6 70bd a3da 9b3c abb0 bbbc
000003a0: 775e 5bbd 2dd1 8cbd b4fa c33c 0c66 3bbd
000003b0: 9aa6 6cbc 61bd 9bbd ea2c 6fbd 23c8 f53b
000003c0: 673d 763c 18ec 2ebd 7235 87bd fcc0 45bb
000003d0: 8304 28bd 354b f03c d398 9fbd 8b41 bebc
000003e0: 431c c83b 4994 ff3c 2bb3 8a3c 5743 043d
000003f0: a27d 893d bd13 e33b 6ac8 623c ad01 103d
-0.10277136 -0.03649085 -0.032785393 0.009628664 0.05793506 -0.10628068 -0.1116215 0.020073513
0.07003826 0.032555323 -0.061717816 -0.09958383 -0.023384672 0.097305335 0.13430548 -0.09885467
-0.12485788 0.031955246 0.08054771 0.17774893 -0.14957382 -0.12212008 -0.07016696 0.04743828
0.054320633 -0.12150583 -0.11069061 0.029452909 0.09130119 0.03007536 -0.17907242 -0.076645814
0.019200364 0.017493373 0.052226044 -0.19197173 -0.17197505 -0.009807255 0.11032301 0.10239817
-0.16615798 -0.11100798 -0.070709705 0.042608026 0.07753913 -0.12477535 -0.18520395 -0.20610453
0.047451455 0.04391115 -0.09923473 -0.061602652 0.026330944 0.059585974 0.050560646 -0.026389977
-0.0005142188 -0.04219151 -0.017494531 0.046883054 -0.09191267 -0.09141713 -0.06911641 0.008143211
0.08888174 -0.09128042 -0.08544457 -0.066153176 -0.06562627 0.016148012 -0.026794715 -0.068860814
-0.043303747 -0.038681112 0.015514148 -0.04688587 -0.016052648 -0.015504371 -0.0028477653 -0.012844718
-0.024259288 0.005590342 -0.034986757 -0.017237362 -0.0049863155 -0.06352561 -0.039636917 -0.00095559086
0.043956038 0.066781186 -0.07157166 -0.05165593 -0.03202018 -0.025785698 -0.0054150936 -0.0847374
-0.0034887127 -0.075255886 -0.0591921 -0.07232798 0.04377706 -0.04714049 0.037809353 -0.0016406341
-0.00623285 0.031174447 -0.004657473 0.03136842 0.036197063 -0.04345151 0.019374281 0.009410166
0.0107502295 0.0072968705 0.013702549 -0.0241697 -0.0063882084 0.04750604 0.033591945 -0.0018814689
-0.04688526 0.0022058582 -0.034043003 0.040665004 -0.030358102 -0.005859115 -0.01841057 -0.004262059
0.026670748 -0.003132763 0.02805547 0.03348128 0.035176985 -0.02288505 -0.020197695 0.024720533
-0.017061992 0.016718632 -0.0063882223 -0.03972494 0.023655346 0.0068033775 0.011301516 0.051466487
0.02725921 0.07947605 0.02052275 -0.035214733 -0.025149038 -0.043320037 -0.045004915 -0.024443131
-0.04342144 -0.035577953 -0.020737642 -0.04889492 -0.030930836 0.02057159 0.041841537 -0.015796697
-0.014157706 0.026908968 -0.02420526 -0.019937936 0.039687198 -0.043511942 0.00551013 0.043302942
0.01066053 0.014448269 -0.030669421 -0.0008354094 0.0008009722 0.011528448 0.020508068 -0.023945889
-0.10350015 -0.040840268 -0.028381608 -0.009638407 -0.054570973 -0.09436204 0.013745552 0.024982229
-0.023670593 -0.013455946 -0.0869198 -0.029852256 0.009149561 -0.02274405 -0.07587706 -0.05032773
0.012014605 0.07266021 0.08308493 -0.07696617 -0.087797076 0.010053111 0.04654796 0.06709311
0.0034922007 -0.046085708 -0.03268575 0.019541599 -0.041387625 0.0006194183 -0.04559133 -0.032537922
-0.01749756 -0.051165912 -0.0071361563 0.010986411 -0.054880165 0.0091703925 -0.040899713 -0.027107416
0.013307398 0.032293674 -0.01969442 -0.020767797 -0.041456643 -0.017986465 -0.03962978 -0.017216805
0.0005802082 -0.03417263 0.050679028 0.0168201 -0.09392515 -0.058767434 0.019025153 -0.02291139
-0.053556886 -0.068758346 0.023923256 -0.045751616 -0.014444018 -0.076044805 -0.058392443 0.007500665
0.015029288 -0.042705625 -0.06601991 -0.0030174842 -0.041019928 0.029332737 -0.07792821 -0.023224613
0.0061068847 0.031198638 0.016931137 0.032290783 0.06713416 0.006929843 0.013841728 0.03515785

conv1B.bias f4 [32]
00000000: 6f72 543c ece0 763d 89f4 f83c 2c93 82bd
00000010: 074b ab3c 44df 943d f7a0 003d 458b d73d
00000020: e31c 93ba a0b3 6a3d 7886 45bc 55fa 68bc
00000030: 6e58 073d 882b 353d 32c9 5a3d dd80 243d
00000040: 9a50 6c3d be6b 1fbd c0ac 7dbb e0d3 bb3d
00000050: 795d 81bc 81ae 803d 11c3 1c3d 68be e83b
00000060: 84c1 463c 2f43 413d d051 7abd 3aba 0fba
00000070: 3c0c a6bd 3d9d 433d 4438 363d 0ae1 133d
0.012966736 0.060273096 0.030390041 -0.06375727 0.0209098 0.07269147 0.031403508 0.105246104
-0.0011223819 0.05730021 -0.012055986 -0.01421984 0.033043317 0.044230968 0.05341453 0.040161956
0.057694055 -0.03892111 -0.0038707703 0.09171271 -0.015791642 0.06283284 0.038271967 0.0071027763
0.012131099 0.047183212 -0.06111318 -0.0005482767 -0.08107802 0.047757376 0.044487253 0.036103286

conv2A.weight f4 [64, 32, 3, 3]
00000000: 18fb 0e3d 65fb 133c d2da ba3c ba9a 85bb
00000010: 7273 9b3d 6e72 a5bd 6149 26bd 16db 46bd
00000020: 1ffe 4ebd cd67 56bd 9e0b d2bd c4bd a3bd
00000030: d5b3 dcbb 10d0 143d 4d91 033d fe86 613b
00000040: 9cc2 8cbb e905 eebc 99fe 74bc a3f2 a43a
00000050: 9f95 d43d 519b 7f3d 5579 ed3b e870 e13d
00000060: 632f 63bd 3773 3abd 4156 dcbb 4b35 abbc
00000070: 67ab 7e3d a05f 4b3c 498e 9ebd 07e7 aebc
00000080: 3bf6 563c 5ec7 b0bd 181c 76bd 52a6 a8bd
00000090: eea5 0e3d 5280 4c3d 39da 7ebc dfa8 87bd
000000a0: 39a5 393c 7c7f ddbb 88b1 51bd d839 c9bc
000000b0: b18d 72bd c78a 11bd a0a2 88bd 38a3 49bd
000000c0: d7e3 c6bc a67f ea3c adee 723d 9c94 9fbc
000000d0: 012e 443d 0499 373d b481 8cbb be61 53bd
000000e0: 4e5b a4bd 07d5 523d 7a3e 253d a50d 83b9
000000f0: 8280 99bd edee e83c 5fb6 553d 5aa0 1abd
00000100: ac42 00bd 78a3 03bd 08ab 19bd 0940 223d
00000110: cb12 1e3d 1a1d f53b de9f 1d3c 2821 66bc
00000120: 3d49 413c fe8b ec3c b727 b2bd dbfd a33d
00000130: e7cd bc3d 55f4 c7bb d69c d9bd aadd 813c
00000140: 79a8 703d 0420 723b 2968 a4bb ea05 21bb
00000150: 4902 cc3d cb2a 013e 7466 f93c 67f8 9ebd
00000160: 1422 af3d 6886 853d 5b46 8dbc fcda a8bb
00000170: 27d2 0fbb a88f 34bb 6544 063d 350d 083c
00000180: 88d6 4cbd e962 ad3c 9ed1 10bd 927f 75bc
00000190: c404 4f3d d46c 4d3d cafe 8ebc c938 fcbb
000001a0: f7ec 0abd 6c2e a43b 10fe cdbc f50d 1fbd
000001b0: 0495 a0bc 13c1 5cbd 0ccf 4ebd a72a 40bc
000001c0: 0069 4c3d 4caf e0bc 79a8 05bd d94a 1bbd
000001d0: af9a 7dbd 36cb 47bd f2e0 66bd 6e60 5cbd
000001e0: 4378 aebb 8e56 443d eb3c a73c d12e 9cba
000001f0: 8935 2bbd c39e fdbc e87b 36bd 70e8 e4bc
00000200: a4d3 97bd a612 39bc 4a21 c63c c60f 2c3c
00000210: d5dc 67bd 4810 8dbc 0ed3 783d c812 d6bd
00000220: 4a23 0cbd 9cf1 13bd 2ae3 2d3b 534f a33d
00000230: 6ffe b03c bfdb 6b3c 00ae 223d 3ba5 703b
00000240: a829 a43c 3dc2 863d 9971 6dbd cd30 84bd
00000250: 15eb aebd 5ba8 4d3d 52ab c43a 74ff a53d
00000260: 804e 9cbc 1c9d 84bb 51a5 473d 0c04 aebb
00000270: 7e43 9cbd fb92 69bd fd28 a2bc b1ee 8dbd
00000280: 0c23 943c e149 243d adf0 11bc 6a57 0b3d
00000290: 8b95 1f3d ec43 25bd f37b e03c 88b1 a73d
000002a0: 8323 abbd efbc 83bd bee2 65bd af35 f23c
000002b0: 3bc5 bfbc dcab c9bc 1f62 27bd 1d5a 31bd
000002c0: 8bcd be3b a9b9 1c3e 045c 113e 09fd cb3d
000002d0: c066 f9ba c5fa e8bc edfe a5bc f446 173d
000002e0: 9aa6 ab3d 08f5 b63c 452f 6cbc 586a 0f3c
000002f0: e234 8cbd 8ffa da3c 2c60 cf3c e7c9 303d
00000300: fad7 2cbb 5036 80bd ca7e 61ba d31b 123d
00000310: c0e0 7f3d 85e7 4f3d d0c2 973a cef2 bdbc
00000320: 7bc9 863d a4b1 f6bc ecc5 563d a92a 993b
00000330: 33a3 3abd 9c48 36bd 76e7 053d 0bd4 6a3c
00000340: 2bdc 9abd 06f4 6bbd 5508 503d aa67 633d
00000350: b389 583c 8b87 a1bd 1276 80bd f459 21bc
00000360: d058 143d 1817 23bd 567c fdbd 48fd 233d
00000370: e46d 1c3d 77f5 05bc 3f80 35bd a7fd 28bc
00000380: bb55 df3d e26d 81bb 5902 f43c ad2a 9fbd
00000390: def2 c43c 83b2 79bd 7bc3 5d3c 67f6 99bb
000003a0: e374 593d 7143 0b3d 9583 753d 29ef dbbc
000003b0: 87ed 753d ef27 b13c 1abf 773c f216 813b
000003c0: 0b77 1ebd f82b 153d 232b c43c 3f9d ae3b
000003d0: e9f4 2c3d 6a4e bb3c 6e26 9d3d bdd0 a83b
000003e0: dc8b 82bc 3536 6e3c 668c 0fbd 90d7 cdbc
000003f0: ca3c 74bc c127 27bd c4c0 163d 6e43 c03d
0.03490743 0.009032105 0.02280942 -0.0040772827 0.07590379 -0.08078466 -0.040597323 -0.04854878
-0.050535318 -0.052345086 -0.10256122 -0.07995179 -0.006735305 0.036331236 0.03212099 0.0034412737
-0.00429566 -0.029055553 -0.014953279 0.0012584518 0.103801005 0.06240398 0.00724713 0.11007863
-0.055465113 -0.045520034 -0.0067241495 -0.020899436 0.06217518 0.0124129355 -0.077419825 -0.021350397
0.013120229 -0.08631776 -0.060085386 -0.08234848 0.03482621 0.049927063 -0.015554958 -0.066240065
0.011330896 -0.006759582 -0.051194698 -0.024563715 -0.05921716 -0.03553274 -0.06671643 -0.049227923
-0.024278564 0.02862532 0.05930965 -0.019480042 0.047895435 0.04482366 -0.0042879228 -0.051606886
-0.080252275 0.05147269 0.040342785 -0.00024996433 -0.07495214 0.028434241 0.052175876 -0.03775058
-0.031313583 -0.032138318 -0.037516624 0.03961185 0.03859214 0.007480276 0.009620635 -0.014045991
0.0117972465 0.028875347 -0.08698981 0.080074035 0.0921896 -0.0061021247 -0.10625617 0.015852768
0.058754418 0.0036945352 -0.0050172997 -0.0024570175 0.09961373 0.1261398 0.030444361 -0.07762223
0.08551422 0.065197766 -0.017245462 -0.005153058 -0.002194533 -0.0027551446 0.03278007 0.00830393
-0.05000928 0.021165328 -0.035356157 -0.014984028 0.050541654 0.050152615 -0.017455477 -0.007697199
-0.033917394 0.0050104167 -0.02514556 -0.03883167 -0.019602306 -0.053895067 -0.050490424 -0.011728919
0.049904823 -0.027427338 -0.03263137 -0.037913177 -0.061915096 -0.04877778 -0.05636687 -0.0538029
-0.005324395 0.047934107 0.02041479 -0.0011915808 -0.041799102 -0.030959493 -0.04455176 -0.027942866
-0.07413414 -0.01129595 0.024185795 0.010501808 -0.056607086 -0.017219678 0.060748152 -0.10452801
-0.03421334 -0.03611909 0.0026533105 0.07974114 0.021605698 0.014395653 0.03971672 0.0036719579
0.020039394 0.06580017 -0.057969663 -0.064546205 -0.08540932 0.050209384 0.0015004671 0.081053644
-0.0190804 -0.004047049 0.048741642 -0.005310541 -0.076300606 -0.057024937 -0.019794935 -0.069302924
0.018083118 0.04010952 -0.008907479 0.03401891 0.038960975 -0.04034798 0.027402854 0.08188158
-0.08356383 -0.064325206 -0.05612444 0.029566614 -0.023409477 -0.024618082 -0.04086506 -0.04329883
0.0058228425 0.15305199 0.14195257 0.09960372 -0.0019027814 -0.028439889 -0.02026316 0.0369329
0.08381386 0.022333637 -0.014415567 0.008753382 -0.06846024 0.026730804 0.025314413 0.0431613
-0.002637385 -0.06260359 -0.0008601962 0.035671066 0.062470198 0.050757904 0.0011578444 -0.023187067
0.06581398 -0.030114003 0.052434847 0.004674275 -0.045565795 -0.04450284 0.03269144 0.014332782
-0.07561525 -0.057605766 0.050789196 0.055518784 0.013216424 -0.07887181 -0.0627252 -0.009848107
0.03621751 -0.039816946 -0.12377231 0.04003647 0.038190737 -0.008176199 -0.044311758 -0.010314382
0.10905024 -0.0039498666 0.029786276 -0.07771812 0.02404159 -0.060961258 0.013535376 -0.004698563
0.053089987 0.033999864 0.05993994 -0.026847439 0.060040977 0.021625487 0.015121246 0.003939503
-0.038687747 0.036418885 0.02394635 0.005328804 0.042225752 0.02286454 0.076733455 0.0051518367
-0.01593583 0.014539291 -0.035046004 -0.025127202 -0.014907071 -0.040809397 0.03680493 0.09387861

conv2A.bias f4 [64]
00000000: 9bc8 bb3a b2db 9f3e 9cac a33d 932e 13bc
00000010: 9301 71bd 08c0 9d3c a563 ea3d 0026 113e
00000020: 1178 f73a 42b9 1f3d 2421 a6bd 5304 953e
00000030: dafe d13d a247 a2bc 4d55 04be 60c6 833c
00000040: 434f df3c 659d 223e 871b d53d db29 29bc
00000050: 0713 cabc 1db7 10bd b880 1e3e 6cbd 0d3d
00000060: 79ba 26bc 4475 d23c 3de4 5b3e 5a7d c93d
00000070: 5a01 8abd 4f29 8ebd 2556 1d3e 4ff2 153d
00000080: 3cf6 623d 6f56 e93d 3c1b cfbb cfb6 6fbd
00000090: ec58 c6bc 68ef eb3a 0def 023d cf72 a33b
000000a0: 06b9 563d a97a 3d3c 5eee 9abd 340a b4bc
000000b0: acee a3bc 6d32 a7bd 79a9 673e a01a b43d
000000c0: 568f b5bc 6d92 1c3e 4741 5a3d 314b 09bd
000000d0: 7460 013e 9af9 3bbc 130d 4d3d a5c4 60bd
000000e0: 472e e93d e66e c039 683a d13c abe0 e9bc
000000f0: a137 fb3d 72d1 7c3d 163b 2e3e be8c 3c3e
0.0014326753 0.31222302 0.07991907 -0.008983272 -0.058839392 0.019256607 0.11444787 0.14174652
0.0018880387 0.038995035 -0.0811179 0.29104862 0.10253687 -0.019809548 -0.12923165 0.016085804
0.027259475 0.15880354 0.10405641 -0.0103249205 -0.024667276 -0.03533088 0.1547879 0.034604475
-0.0101762945 0.025690682 0.21473785 0.09838362 -0.06738539 -0.06941473 0.15364893 0.036608037
0.05541061 0.11393439 -0.0063203853 -0.05852395 -0.024212323 0.0018000426 0.031966258 0.0049880515
0.052422546 0.011564889 -0.07564996 -0.021977521 -0.020011269 -0.08163915 0.22623242 0.08794141
-0.022163074 0.15290232 0.05328491 -0.033518974 0.1263445 -0.011473084 0.050061297 -0.054875035
0.1138578 0.0003670372 0.025540546 -0.028549513 0.1226647 0.06172318 0.17014727 0.18413064

conv2B.weight f4 [128, 64, 3, 3]
00000000: 99c7 393d 3550 dd3c 173d 0d3d 8a8f 953a
00000010: 8acb 87bd 495c b2bd 1b55 3cbd 75e2 60bd
00000020: 98a4 58bc b168 e4bc 9913 93bd 35c3 30bd
00000030: 7aa4 d5bc ea18 8abc 7018 55bd f080 083d
00000040: a6b3 aa3b 4408 273b a54f 42bd cb57 debb
00000050: 63ba 04bb 6b69 6cbc 7c5f 65bd c28e c6bd
00000060: 6fe6 1abd bcba d2bc d886 f2bc 9387 cc3c
00000070: b1c5 9fbd 1cc2 e0bd 6267 67bc 7577 65bd
00000080: a31c ecbd 88a7 35bd a7e1 95bd a377 d43b
00000090: 171d 0fbd 8602 85bb 390b 89bd 89f9 09bd
000000a0: 45ab c5bc b0ab 01bc 9410 253d 8218 83bc
000000b0: ad03 2e3d 24fc b43c a764 bb3c 60ca 3abb
000000c0: e7cf 3fbd c2ff c93c f1ee 04bd e391 5f3c
000000d0: 7019 433c 664e a33c b4b1 31bd e566 6cbd
000000e0: 5de3 aabd 3d77 1bbd 441e acbd 7bca 4bbd
000000f0: f662 9bbd b483 dfbd 5cdf 21bc 59f5 c5bc
00000100: 73a5 40bd 8542 d3bc 86cf 49bc 159f 27bd
00000110: b16d 82bd e2cc 8fbc 7e05 1e3d 4ee1 80bc
00000120: a6b1 4bbc 324d 13bc d927 1dbd 6fec 2f3d
00000130: 8fe9 0f3d df73 70bc c1b1 14ba 32e2 653a
00000140: 3c18 bebc 9417 1f3d f5bb e53c 4d5b 37bd
00000150: 5a77 93bd 4516 8bbd a4f2 3abd 7ab6 11bc
00000160: b83e 21bd 4b05 1ebc f56c afbc dc33 33bd
00000170: a607 25bd e3bf 79bc 5c15 99bb 57f6 d63b
00000180: b0b7 0e3e 80c6 c63d 7bfb 76bd 3335 19bd
00000190: 73fc 08bd cc04 4fbc f059 11bd 4d14 9c3c
000001a0: b1d3 313d 99db fbbb b8a1 50bb 1562 c83d
000001b0: 3465 51bc 43ae 27bd 1c63 06be de18 293d
000001c0: 8183 15bc 2823 1abd 0e55 5fbd cc4d 87bd
000001d0: 4b36 87bd cb9b a93d 2d9b 983c d230 3abc
000001e0: 16fb debc 8c0d 453d 7bc0 16bd d99e b4bd
000001f0: e701 91bd ef43 58bd 5b16 84bd 81cf 67bd
00000200: 20d8 2fbc d831 c1ba b284 963a fff0 8a3d
00000210: c6d2 2cbd da77 7ebd cb62 9c3c 4c0f 71bd
00000220: 9ba4 c83c ba1b 1d3d 7aa7 b3bd 3a88 a4bd
00000230: f92c f3bc eb9c 0cbd a97e 23bd 105c 9cbd
00000240: 40d6 4f3c b64a 673d 668f c83c 062a 2fbc
00000250: 5d28 97bc 3bdd 69bd 46f2 833c f06d d1bd
00000260: a3ca b4bd 15e8 7ebb 92b5 87bc d2cf bf3b
00000270: 589d 24bc 81da 28bc 1179 213d a0ea cf3d
00000280: a693 593e 6153 143e 83f9 febc ad1f e5bc
00000290: 4f6c 3f3c 8266 3bbd 24c2 2abd 4604 32bd
000002a0: 20df bf3b 04dd 37bd 9ba1 74bd da9b ad3c
000002b0: 9957 7f3c 339f 053d 1c48 9ebc 6f67 f4bc
000002c0: 4726 a6bc 209a 03bc 923a a73b e165 e9bc
000002d0: 8343 9a3b 993e 28bc dd8a 9dbc dc1b 9abc
000002e0: 79e2 d33c 0e55 cabc 59cb 053c 6b9f 373c
000002f0: 1bb6 adbc 1454 e73c 4a75 b13c aef3 0a3c
00000300: 5f67 3b3c 0a21 1e3b 9177 46bd 419f 9c3c
00000310: 180f 1cbd ba72 fd3b 5fb6 b6bd eb0f d6bd
00000320: 3c84 8dbd 6331 4cbd 6833 6d3a ac41 bdbd
00000330: 22c6 a3bc 94d1 5abd 8041 cdbb 63a4 3bbd
00000340: af40 62bc 2257 32bc 4646 0fbd 15bb 19bd
00000350: f035 e1bc d296 9cbc 61e1 8c3d d2ac 3f3d
00000360: c1f5 45bc f6d3 f4bc 59e6 c93b 9ad0 1cbc
00000370: 6dc2 76bc 592d b83c b2ab 31bc 06e5 653c
00000380: 75ee 243c 5bdd 91bc 461b 073d a4ef f23c
00000390: 459a 36bb 297b d5bc 4adb a93b 67a8 64bd
000003a0: 22c9 96bc a2e5 56bb 29d9 a5bd 96ef 9fbc
000003b0: 85ab a03d 554f a8bb b1d0 4abc 0868 b3bd
000003c0: b539 cd3c f9f5 a1bc 54e6 87bd aff7 8a3c
000003d0: 2d60 88bd 8223 f8bd 5d4f 0e3e 53b9 8c3d
000003e0: 4b4e 293d 2535 bebc d36a 27bd 8dad a1bd
000003f0: c258 883c 02f6 9bbc 40f9 4e3c 039f 21bd
0.045356367 0.027015785 0.034482088 0.0011410576 -0.06630619 -0.08709008 -0.0459796 -0.054903466
-0.013222836 -0.027881952 -0.07181472 -0.043154914 -0.026079405 -0.016857583 -0.05202526 0.03332609
0.005209404 0.0025487104 -0.047439236 -0.006785368 -0.0020252697 -0.0144294305 -0.055999264 -0.09695198
-0.037817415 -0.025723808 -0.029605314 0.02496699 -0.078013785 -0.109745234 -0.0141237695 -0.056022126
-0.115288995 -0.044349223 -0.073184304 0.0064839884 -0.03493985 -0.0040591387 -0.06691594 -0.03368524
-0.02412952 -0.007914469 0.040299013 -0.016002897 0.042483974 0.022092886 0.022875143 -0.0028501973
-0.04682913 0.024658088 -0.032454435 0.013645622 0.01190792 0.019934844 -0.04338236 -0.057715315
-0.08344147 -0.03795551 -0.0840421 -0.049753647 -0.07587235 -0.10913792 -0.009879913 -0.024164842
-0.047032785 -0.025788555 -0.012317544 -0.040923197 -0.06368578 -0.01755375 0.038579457 -0.015732434
-0.012432491 -0.008990573 -0.03836808 0.04295009 0.03513485 -0.014676063 -0.00056722393 0.00087693625
-0.023204915 0.038840845 0.028043726 -0.044764806 -0.07200499 -0.06791357 -0.045641556 -0.008893603
-0.039366454 -0.009644817 -0.02141426 -0.04375063 -0.040290497 -0.015243503 -0.0046717357 0.0065601277
0.13937259 0.097058296 -0.060298424 -0.03740425 -0.03344388 -0.012635421 -0.03548616 0.019052649
0.043414775 -0.00768609 -0.0031834673 0.09784333 -0.012780476 -0.040937673 -0.13123745 0.04128348
-0.009125591 -0.037631184 -0.054524474 -0.066066355 -0.066021524 0.08281668 0.018628681 -0.011364179
-0.027219336 0.048108622 -0.036804657 -0.0881936 -0.07080441 -0.05279916 -0.064495765 -0.056594376
-0.010732681 -0.0014739586 0.0011483638 0.067842476 -0.042193197 -0.062126018 0.019090077 -0.05885248
0.024492553 0.03835652 -0.08772178 -0.08033796 -0.02968453 -0.034329336 -0.039915714 -0.07634747
0.0126853585 0.056467734 0.02448244 -0.0106911715 -0.018451864 -0.057095747 0.016106736 -0.10226047
-0.088277124 -0.0038895656 -0.016566072 0.0058536315 -0.010047279 -0.010306002 0.0394221 0.10152173
0.2124773 0.14484932 -0.031124836 -0.027969206 0.011683538 -0.045752056 -0.041689053 -0.043461107
0.005855456 -0.04488851 -0.05972443 0.02119248 0.01558485 0.032622527 -0.019321494 -0.029834477
-0.020281924 -0.008032352 0.0051034177 -0.028490962 0.004707755 -0.010268831 -0.019231254 -0.018812113
0.025864827 -0.02469876 0.008166158 0.011207442 -0.021204999 0.028238334 0.021662373 0.008480949
0.01143822 0.002412858 -0.04845387 0.019118907 -0.038100332 0.0077346237 -0.08921503 -0.10452255
-0.06909987 -0.049851786 0.00090484926 -0.092410415 -0.019991938 -0.053422526 -0.0062639117 -0.04581107
-0.013809367 -0.010885032 -0.034979127 -0.03753193 -0.02749154 -0.019114885 0.06878925 0.046795674
-0.012082518 -0.029886227 0.006161493 -0.009571219 -0.015061003 0.022482561 -0.010844158 0.014031654
0.010066618 -0.017805746 0.032984994 0.029655285 -0.0027862948 -0.026059704 0.005183612 -0.055824663
-0.018406454 -0.003279068 -0.08098061 -0.019523423 0.07845215 -0.0051364102 -0.0123788575 -0.08760077
0.02505193 -0.01977061 -0.066357285 0.016963808 -0.06658969 -0.121161476 0.13897462 0.06871285
0.04133443 -0.0232187 -0.04087336 -0.0789443 0.016643886 -0.019038204 0.012632668 -0.039458286

conv2B.bias f4 [128]
00000000: 7f80 04bd 751b 913d 234e 07be ee74 293d
00000010: 6811 e63d d283 443d 5458 afbd a40c 713d
00000020: 82f2 4c3d a964 553d 0d08 c43d daf6 3abd
00000030: 9cdb 3f3c f062 c93d 80f0 613d b9ce 38bd
00000040: ec44 753c 4b5d 22bd 95b3 76bc bd85 0cbd
00000050: e38c 74bd 2caf 86bd 7eb2 85bd 1867 1fbc
00000060: 66af d33d d9b5 99bd feb9 773b 4cb4 423d
00000070: 3d75 403d 3f50 b8bb f6c5 483d d82b 533d
00000080: 3512 793c 78d2 d03c 71da 673c 97a0 6c3b
00000090: d75e 4f3d c680 30bd d6b0 a5bc f9f2 3abd
000000a0: d3f0 523c 33af 803d ef3e 7dbd 55c9 12bd
000000b0: a63c 8e3d 48db 6cbd c53e 953d 1444 aa3c
000000c0: b53b 7a3b e470 913c f864 043d 1225 493c
000000d0: b591 3fbc 15ee 59bc 5f90 f0bc c92d 893c
000000e0: 932d 383b 33d0 213d b7af 043e cafb c9bc
000000f0: f570 ccbc be6f 423d af04 923c d32b 513a
00000100: 1b4e b3bd c27d c23b cdf5 0f3d d166 65bd
00000110: bfa3 593d ebbd abbc 9064 8e3d c3c6 583d
00000120: a9a5 a83c 9d72 7c3d a356 3dbd 47dd 2abd
00000130: 2f51 d43c b107 603b c688 153d 03f8 393d
00000140: 23f0 ab3c e97e 1dbd b4cb c23c 16f4 bfbc
00000150: 5dc1 8d3c 3667 1abd 7153 733c 4aa8 8abd
00000160: ead9 283d 9ad7 f63c e68d 8e3b 23af 233d
00000170: b51d fd3c 2493 b9bc 751f 9f3b f6a7 f23c
00000180: a4ec 533d 58e4 883c d8de 46bc 797d 21bc
00000190: 02be 683d ed24 2fbd 882e 48bd feeb 953d
000001a0: 4825 3bbc 66b6 d83c 87e9 fb3c ead0 4fbc
000001b0: b9ab 6abd c05c 253d 7d37 f8bc a5e0 733d
000001c0: c100 8fbc bea8 8bbd 6418 8c3d 2a2a 083b
000001d0: 8a18 b73c 790b 8b3c 8e00 3f3d 9dee efbb
000001e0: 55df 4a3c f028 f9bb 90f4 053b c34a 98bc
000001f0: 1e2a 27bd 6d8e 38bd de28 e23c 1bb5 b6bc
-0.032349106 0.07085315 -0.132134 0.04137128 0.11233789 0.047977276 -0.08561769 0.058849946
0.05003596 0.05209795 0.09571848 -0.045645572 0.011710074 0.09833324 0.055161 -0.04511902
0.014970046 -0.039639752 -0.015057464 -0.03430723 -0.059704673 -0.0657638 -0.06528185 -0.009729169
0.10336189 -0.07505388 0.003780007 0.047535226 0.046986807 -0.0056248005 0.049016915 0.051555485
0.015202095 0.025490984 0.014151202 0.0036106461 0.050627556 -0.043091558 -0.020225924 -0.045641873
0.0128748 0.062834166 -0.061827596 -0.035836536 0.069451615 -0.05782631 0.07287363 0.020784415
0.003818256 0.017754026 0.032322854 0.012276905 -0.011692454 -0.013301392 -0.029365717 0.016745465
0.0028103336 0.039505195 0.12957655 -0.024656195 -0.024956206 0.047469847 0.017824499 0.00079792476
-0.08755132 0.0059354017 0.035146523 -0.056006256 0.053134676 -0.020964583 0.069527745 0.05292393
0.020586805 0.06163274 -0.0462252 -0.041714933 0.025917618 0.0034184272 0.03650739 0.045402538
0.02098853 -0.03845111 0.023778774 -0.023431819 0.017304117 -0.037696086 0.014851437 -0.0677038
0.041223444 0.030132104 0.0043504117 0.039961945 0.030897954 -0.02265317 0.004856045 0.029621106
0.05173935 0.016710445 -0.012138091 -0.009856575 0.05682183 -0.042759825 -0.0488725 0.073204026
-0.011422463 0.026454162 0.030751003 -0.012684086 -0.057292674 0.040371656 -0.030299896 0.05954041
-0.017456414 -0.068192944 0.0684059 0.0020777085 0.022350568 0.016973244 0.04663139 -0.007322146
0.012382348 -0.007603757 0.002043996 -0.018590337 -0.04081165 -0.045057703 0.027607378 -0.022303155

dense3.weight f4 [32, 1152]
00000000: 9803 793c 84dc d23d e1ff 663d 89c3 7e3c
00000010: f777 5abd 4331 fa3b c9be 533d 572b 7d3d
00000020: 1f7a b4bc 24d8 bdbd 57bc 12be 9016 a8bc
00000030: 8c0e a1bd 364c 36bd c20a 743d ad45 c0bd
00000040: 1f65 18bd 09b5 10bd 9c2c 253d a14d 883c
00000050: 047f 873c 0403 94bc e660 2abd 7670 893d
00000060: 847f 7bbc 39fe 2b3d 3f70 673d 15f1 e63c
00000070: cf2d 4c3c da77 dd3c 905e 5e3c e9f1 d5bb
00000080: 8fcf 65bd 29b7 b3bd 98c6 133d 3e97 1cbe
00000090: d2cd 473d 0d4e 053d 88b8 0abc a147 adbd
000000a0: 8bc1 53bd 73af 0f3d 67fe babd 35f1 c8bc
000000b0: f5f9 053e fa5c 56bd e8a3 123d 147f 93bc
000000c0: 89ce d8bd db3d f53d 86bb a0bd f540 a4bb
000000d0: f3ac a23d e6b7 15bc 8010 e0bd eb6f ba3c
000000e0: 21ad 9cbc c39d 64bd b3f7 873d 0452 69bc
000000f0: c6a0 ceba 3ec8 da3d 85c1 073b 5578 203d
00000100: d29d dc3c b33f fcbc 1518 643c 4643 a8bd
00000110: 2fc9 023d d47c b5bd 0b45 dcbc c05c d8bd
00000120: 9d4c 853d d67a 02bd 329b 833d 7773 b63d
00000130: d7d7 963d 878f 373d 11b7 6d3d a386 b33d
00000140: 316b b1bc 4b4b f03c 248f 3b3c e196 0ebd
00000150: b789 87bc 6add d23d 6cc2 7dbd 4888 d13d
00000160: 65ba ec3d 18f0 343c d7d5 7bbc fa11 78bd
00000170: 8056 ccbd f949 6e3d 775f c33d e2eb 1abd
00000180: ef7a d7bd e02d 083d d6ed 92bc 117d 193d
00000190: 639b 09bc 0a7b 053c e8af c63b f949 793c
000001a0: 86e6 06bd 9c0e bbbc 5515 4bbd de34 9ebc
000001b0: 5527 37bd a3e0 5cbd 2e17 82bd bec3 fabc
000001c0: 74ff 513c 89ae 253b 0283 ee3d ff17 903b
000001d0: 2d0b ecbc ffc5 a4bd 826b 973d c73e 08bd
000001e0: 141e cdbc 7bfa ca3c a2c7 7d3d 562e 19be
000001f0: 9876 203d bf11 173d 1d8e 3b3a c290 b5bd
00000200: be40 52bc 4e7d 24bc f97b 30bd 576f 5fbc
00000210: 53fc b5bc cc87 7fbd 421f a1bc d5ce 1bbc
00000220: 94b9 753b 25d7 013e df1c 31bc 8458 2abd
00000230: 497a 85bc b62c ea3a 73b8 58bb 2ee0 70b9
00000240: 377f 16bc 204f c23c 8448 6fbd 4ac0 f73b
00000250: 9bc1 c23c eaa2 253d 04bf 12be ca41 81bd
00000260: 21bc 75bd e1cc 273b 602b 903c 57af 823b
00000270: d3e2 a93c c1ec 6d3c c37b a03c ff62 783c
00000280: 71d3 8cba a325 18bd cced 11b9 894c 713c
00000290: 7d31 bdbd b88d 14be 2705 cb3b a00c 85bd
000002a0: 527a bebc e760 8c3d ee0d 993d ea5f 5f3d
000002b0: 764d c63d 4bde 5f3d 7171 f13c f00e d13c
000002c0: d3de 38bd f6ab e83c bc1e 4bbd 9dcc 03be
000002d0: aefc 83bd efdf 1dbd ec02 5c3c 9b26 1bbd
000002e0: d8b2 d03c 5fb4 b63d 1444 01bd e576 293d
000002f0: 83a6 14bd 66f9 1dba c77a f83d f2e0 0f3d
00000300: 2c1b 63bd cda5 563d db6e a93d de14 e7bc
00000310: 8917 a6bd ef89 e8bd f803 9d3c a985 223d
00000320: 133e c2ba 1111 da3d a9a7 903c d12d a2bb
00000330: 7bb0 583d dda5 cb3c 93f9 22bd 4802 833c
00000340: b0dd 2fbd 88e8 b33d c03c 4fbc 626e b83d
00000350: 9031 5b3c 7c68 c2bc e2f9 aebc 0eb3 74bd
00000360: a4cc 5a3b 4226 a9bb 5449 20be c9d7 b1bc
00000370: 06f8 f13c 4b2f f0bd 6404 5e3d ddfa e73d
00000380: f757 653d 4223 6c3d 5841 58bc c91c 703c
00000390: c9d6 3dbd 8455 1ebd fd1d be3d 79ba c93d
000003a0: 6f72 efbd cd64 55bc 72d3 6c3c b2d7 a53d
000003b0: fd02 373d e8be 1b3a c85c 743d 433f c5bd
000003c0: 9bdd 13bd d148 05bd 6556 9fbd ac41 53bb
000003d0: ce95 8a3d d6a5 a23d 1514 0f3d 833e 59bd
000003e0: 4380 cf3c 58e0 843c eeb8 45bd eb66 f8bd
000003f0: e3bf 64bd e52d ad3b ee79 f63c 9370 d6bd
0.015198611 0.10295966 0.05639637 0.015549549 -0.053337064 0.007635267 0.05169562 0.06180891
-0.022030888 -0.09269741 -0.14329658 -0.020518571 -0.07864103 -0.044506274 0.059580572 -0.093882896
-0.03720581 -0.0353289 0.040325746 0.016638579 0.016540058 -0.018067844 -0.041596316 0.06710903
-0.015350226 0.041990492 0.05650353 0.028191129 0.0124620935 0.027034689 0.01357235 -0.006529082
-0.056106146 -0.087751694 0.036078066 -0.1529207 0.04878027 0.03254514 -0.008466847 -0.08460928
-0.05169825 0.03507943 -0.09130555 -0.024529079 0.13083632 -0.052334763 0.035800844 -0.018004932
-0.105862685 0.119746886 -0.07848267 -0.0050126263 0.07943144 -0.009138083 -0.10940647 0.022758445
-0.019125523 -0.055814516 0.06639042 -0.014240745 -0.0015764467 0.106827244 0.0020714712 0.039177258
0.026930723 -0.030792093 0.013921757 -0.082159564 0.031930145 -0.088617 -0.026888391 -0.10564566
0.065087534 -0.031855427 0.064260855 0.08908742 0.07365387 0.044814613 0.058035914 0.08765914
-0.021657558 0.029332777 0.011447702 -0.034811858 -0.01654516 0.10296138 -0.061952993 0.10231072
0.115589894 0.011043571 -0.015370808 -0.06056402 -0.09977436 0.058176015 0.09539693 -0.03782261
-0.105214946 0.033246875 -0.017935675 0.03747279 -0.0083988635 0.008147011 0.00606345 0.01521539
-0.032934688 -0.022834115 -0.04958089 -0.019312318 -0.044715244 -0.053925168 -0.063520774 -0.030610915
0.012817252 0.0025281033 0.116460815 0.004397392 -0.028813923 -0.08045577 0.07393552 -0.033262994
-0.025038756 0.024777642 0.061957963 -0.14959082 0.0391756 0.03688216 0.00071546604 -0.08865501
-0.012832819 -0.010039641 -0.04308698 -0.013637385 -0.022215044 -0.062385365 -0.019668225 -0.009509762
0.0037494646 0.12679727 -0.010810106 -0.04158832 -0.016293662 0.0017866108 -0.0033068925 -0.00022971697
-0.009185604 0.02371937 -0.058418766 0.0075607644 0.023773959 0.04043857 -0.14330679 -0.063113764
-0.059993867 0.0025604295 0.017598808 0.0039881873 0.020738041 0.014521779 0.019590264 0.015160321
-0.0010744167 -0.03714527 -0.00013916864 0.01472772 -0.09237955 -0.14507186 0.0061956826 -0.06496549
-0.023251686 0.0685442 0.0747336 0.05453483 0.09682743 0.054655354 0.029473038 0.025519818
-0.045134377 0.02840231 -0.049589857 -0.12871023 -0.06444679 -0.038543638 0.013428431 -0.037878614
0.025475904 0.08921122 -0.031559065 0.041373152 -0.03629161 -0.0006026238 0.12132793 0.035126634
-0.055445835 0.052404214 0.08273097 -0.028208192 -0.08109958 -0.11354434 0.019166932 0.03967825
-0.0014819525 0.106477864 0.017658072 -0.0049493094 0.05290268 0.024859363 -0.039788794 0.015992299
-0.042936027 0.08784586 -0.012648761 0.09005429 0.013378516 -0.023731463 -0.021359388 -0.059741072
0.0033386135 -0.0051620314 -0.15652972 -0.02170934 0.029537212 -0.117277704 0.054203406 0.11327145
0.055992093 0.057650812 -0.013199173 0.0146553 -0.046347413 -0.038655773 0.092830636 0.0985002
-0.11691748 -0.013024521 0.014454709 0.08097781 0.044680584 0.0005941228 0.059658796 -0.09631207
-0.03610001 -0.032540146 -0.0778015 -0.0032235188 0.06766854 0.07941787 0.03493126 -0.05303813
0.025329715 0.016220257 -0.048272066 -0.12129005 -0.05584706 0.005285012 0.030087437 -0.104706906

dense3.bias f4 [32]
00000000: e932 773d 2f96 46bd d881 0ebd f308 a0bd
00000010: 9989 2bbd ba84 933b a339 a03c 4cad adbc
00000020: 80e9 783e b7e0 893d e6c0 fcbb 5d00 b8ba
00000030: de79 473e f912 a93c 712a a83d 2827 d13c
00000040: f6ad 833d 9e3e 423e 94ee b7bd cd32 083d
00000050: 982d febb 6b25 103e 82a8 53bc 6873 e9ba
00000060: ed21 3c3d dfec 7fbd 5794 05bd a2e8 9fbc
00000070: 3f4c cf3d db78 cb3c d2c8 a73c fd9f 4a3e
0.060351286 -0.04848307 -0.034791797 -0.07814207 -0.04187927 0.004501906 0.019558733 -0.021200798
0.24307823 0.06732314 -0.007713425 -0.0014038194 0.19480082 0.02063893 0.0821122 0.025531366
0.06429665 0.18969199 -0.08981052 0.033251572 -0.0077569 0.14076774 -0.012918593 -0.0017810883
0.04593079 -0.062481757 -0.03261217 -0.019520108 0.10121965 0.024837902 0.0204815 0.19787593

dense4.weight f4 [10, 32]
00000000: ba84 bcbe d022 82be 6fb2 b2be 90dc 873e
00000010: 1481 09be 2333 a13e 2930 f63e 3f49 e03e
00000020: 1c6c 8fbe fee5 01bf d7df 833d 0e16 c43e
00000030: 9754 bbbd d81d dcbd 1c5f 12be 6493 cd3e
00000040: 082c d6be ccea a03e dc7a a6bd 39e3 f43e
00000050: c21e b13e 8323 c3be 31a3 17bc cbab d1be
00000060: ba90 e03e 8b75 4bbe 1248 c4be 363b b13e
00000070: 1969 dabe cd66 e4be 9b5c 0e3e 9531 d8be
00000080: 3f74 413e 8ebe 2bbe dbde fbbe 6b2d 57be
00000090: 7d04 56bd 79b6 95be c21b 07be de1c d2bc
000000a0: b265 133f ce03 873e f3d6 243d a920 adbe
000000b0: aa8a 0c3f 8962 bcbe 1c42 f03e 1091 f3be
000000c0: 1529 b8be 6cfe b43e 9894 a5be 58c6 98be
000000d0: 17a0 a0be 8c83 143f f562 643d da3f 4f3d
000000e0: 1eb3 b3be facf 22be 2de7 88be 8741 52bd
000000f0: 8006 f13e 566a a0be f2f4 9bbe 5028 113f
00000100: 1053 71be 1683 043f 117a cc3e d686 f1bd
00000110: b752 fd3d e299 e9bd 3c35 c83e 780e cd3e
00000120: 55c4 063f 4bf0 943e 0762 2d3e e23b 573e
00000130: 735a 023f c25e 5b3e eb38 8ebe d410 aabe
00000140: 1c84 95be 0cef 98be 9fcf c73e 8e8a 17be
00000150: 9176 56be 1e12 b3bc 8e58 013e 8e57 d23e
00000160: c14d 9cbe c4f3 13be be73 3cbe a874 a83e
00000170: 8fa4 f0be b822 f1bd 0294 e73e 3a7f 7fbe
00000180: 8f13 e83e b67b 0fbe 1dda c43e 80be e93e
00000190: 434e 81be 28af 8f3d 6905 c0be 2aea 59be
000001a0: 6465 05bd b90d 923e 8ee6 80bb e8ab ef3e
000001b0: 1b3b 91be 24e5 5fbe 2cba 1ebe 27a0 2bbc
000001c0: 4549 13be 7616 ecbe 170b e73e a76b 8dbe
000001d0: c9b6 0ebe 2b99 adbe fa48 9e3d 0da2 023f
000001e0: 888e c0be bba0 7fbd dc23 d13e 1e96 83bd
000001f0: 49e4 c0bd bb1f 4fbe 3072 9abe 9374 ee3e
00000200: 55c1 5bbe b75b 8dbd 24e7 a03e 5523 4ebe
00000210: 25b8 e03e 4011 953e a99a 933e 9f62 033e
00000220: bcf6 56be 350c 993e d2d2 1ebe 5dc0 77be
00000230: c7f8 98be 8ede 003f 36f4 9fbe 3be3 84be
00000240: c620 ee3e 401a da3e b38a dabe a8d9 10bd
00000250: 36d5 bbbe 906e f43e e3c7 6d3e faaf a3be
00000260: a97e dc3e 0469 4dbe 32c3 b4be 775e dfbe
00000270: 8661 d53e 37ce 023f de56 2d3e 5812 89be
00000280: 0a0d be3e d9ca 29be c493 9fbe 949f e83e
00000290: ec6d f73e abe0 d4bd bba2 88be d4c8 98be
000002a0: 4e68 97be 2aba febe 757e 043e 9d6f c23e
000002b0: 311d b4be 1467 cdbd 495e e43e 89f1 af3e
000002c0: c7eb c33d efd7 dfbe 1571 55bd 1ea4 6fbe
000002d0: c61f a33e 9983 61be a7ef d73e 6e09 8abd
000002e0: 1d54 3cbe 75fe fe3e d84f 9b3e 382e 6b3e
000002f0: 5332 b73e 1d45 be3e bc57 e1be 7f4a c63d
00000300: f30f 91be ae4d 023f 8462 08bf 7766 7bbe
00000310: fbaa e6bd bc4d cd3e bcd2 cbbd 0b82 dd3e
00000320: 1366 bfbe 1a89 edbe c71b 24be 4b23 0cbe
00000330: 1a22 36be 9351 f63e 7b80 de3e 9dd5 103e
00000340: 9b9f b3be d208 9bbe 04ac 8438 399b bdbe
00000350: 6969 3f3e a5a9 fbbd 1cfb e43d e173 abbc
00000360: 176e d73e e5fe 123f d1c5 bcbd fe91 9f3e
00000370: 4516 b63e 1a71 adbe 1580 01bf 7b28 c2bd
00000380: a465 e33e 72e2 1bbe 8374 693e 7ec8 c7be
00000390: 87ae f3bd a5ea 85be f37e e0bd a23a b0be
000003a0: ff08 143f bad1 da3e ed72 18be 3771 a1be
000003b0: 3933 393e 7d24 e6bd e190 e7be 629e bc3e
000003c0: a7db d43e 9ff2 a7be e955 cdbd 38f8 aa3e
000003d0: fe03 8b3e 5026 153f f735 213d e580 f13e
000003e0: d22e e6bd 7039 96be 4b4b 97be a382 01bf
000003f0: b4fa e7be 3cf9 e1bb 230f d33e 8731 ddbd
-0.36820012 -0.25417185 -0.3490176 0.26535463 -0.13428146 0.31484327 0.48083618 0.43805882
-0.28012168 -0.50741565 0.064391784 0.38298076 -0.091469936 -0.1074788 -0.14294094 0.40151513
-0.41830468 0.31429136 -0.08128902 0.47829607 0.3459378 -0.3811303 -0.009255216 -0.4095138
0.43860418 -0.19869058 -0.38336235 0.34615487 -0.42658308 -0.4460968 0.13902514 -0.42225328
0.18892 -0.1677191 -0.49193463 -0.2101342 -0.052250374 -0.29240778 -0.13194183 -0.02564853
0.5757705 0.2637009 0.040244054 -0.3381398 0.54899085 -0.36793926 0.46925437 -0.4757161
-0.35968843 0.35350358 -0.3233993 -0.29838824 -0.3137214 0.58013225 0.055758435 0.050598003
-0.35097593 -0.1589965 -0.26738873 -0.051332023 0.47075272 -0.31331128 -0.30460316 0.56702137
-0.23566842 0.5176252 0.3993688 -0.11793296 0.12369292 -0.11406304 0.39103115 0.400501
0.5264333 0.2908958 0.16931926 0.21018937 0.50919265 0.21422866 -0.277778 -0.33215964
-0.29202354 -0.29869878 0.3902559 -0.14798948 -0.20943667 -0.021859225 0.12631437 0.41082424
-0.30528072 -0.14448458 -0.18403527 0.32901502 -0.47000548 -0.117742 0.45230108 -0.24950877
0.45327422 -0.14012036 0.38447657 0.45653152 -0.2525502 0.0701583 -0.37504128 -0.21280733
-0.032567397 0.28526095 -0.0039337343 0.46810842 -0.28365406 -0.21864754 -0.15500706 -0.010475195
-0.14383419 -0.46110886 0.45125648 -0.27621195 -0.13936915 -0.3390592 0.07728763 0.5102852
-0.37608743 -0.062409144 0.4084767 -0.06425117 -0.09418542 -0.20226948 -0.30165243 0.46573314
-0.21460469 -0.06902259 0.31426346 -0.20130666 0.4389049 0.29114723 0.28828934 0.1283059
-0.20992559 0.29892126 -0.15510109 -0.24194475 -0.29877302 0.5033959 -0.31241006 -0.25954613
0.4650938 0.42598152 -0.42683944 -0.035363823 -0.36686105 0.47740602 0.23220782 -0.31970197
0.43065384 -0.20059592 -0.35305172 -0.43626758 0.41675967 0.5109591 0.16927668 -0.26771808
0.37119323 -0.16581286 -0.31167424 0.45434248 0.4832605 -0.103944145 -0.26686653 -0.2984072
-0.29571766 -0.49751407 0.12938865 0.3797578 -0.3517852 -0.10029426 0.44603184 0.34363964
0.09566455 -0.43719432 -0.052109797 -0.2340245 0.3186018 -0.22022857 0.42175028 -0.0674008
-0.18391462 0.4980351 0.30334353 0.2296685 0.35780582 0.37162104 -0.4401225 0.09682178
-0.2833248 0.5089978 -0.5327532 -0.24550806 -0.11263081 0.4009837 -0.09952304 0.43263277
-0.37382564 -0.46393663 -0.16026221 -0.13685338 -0.17786446 0.4810911 0.43457398 0.14143987
-0.35082707 -0.30280167 6.326291e-05 -0.37032488 0.18692555 -0.122882165 0.11180708 -0.020929279
0.4207618 0.5742019 -0.09217418 0.3116607 0.35563865 -0.33875352 -0.5058606 -0.09480377
0.44413483 -0.15223101 0.22798352 -0.3902015 -0.11898523 -0.26155582 -0.10961714 -0.34419733
0.57826227 0.42738134 -0.1488759 -0.3153169 0.18085946 -0.11237428 -0.4522772 0.36839586
0.4157383 -0.32802293 -0.10026152 0.333925 0.27151483 0.58261585 0.039358106 0.4716865
-0.11239399 -0.29340696 -0.2954963 -0.5058996 -0.4530846 -0.006896166 0.41222486 -0.10800462

dense4.bias f4 [10]
00000000: f083 6b3c 7812 3b3f 07d8 b9be 36de eebd
00000010: 1c97 54be 2a8b 99be be62 44be e297 f53c
00000020: f000 023f 0f4c 2f3e
0.014374718 0.73075056 -0.36297628 -0.11663477 -0.20760769 -0.29988986 -0.19178292 0.02997965
0.5078268 0.17118858
